policy_net.pth (torch, 22766 bytes, 7 tensors)

embedding.weight f4 [500, 4]
-0.0006269136 -0.000108624285 0.00052663987 0.003945659 0.42542672 0.08381919 0.20246994 0.138575
-0.7985217 0.024269596 0.2142606 -0.054534357 0.2270495 -0.16968592 -0.1108878 0.4129795
0.05928305 0.02693864 0.018844048 -0.046844326 -0.001464461 -0.0022413775 -0.0020409327 0.0020033577
0.060934037 0.04605836 -0.010155082 -0.01837612 -0.09930101 -0.20219769 -0.2296907 0.18772359
0.065153815 0.050541103 0.032744918 -0.0417029 0.048243422 0.06463533 0.01104333 -0.062335093
-0.00072820124 0.0031273945 -0.0011348415 0.00092852087 -0.15766883 -0.13554853 -0.18592907 0.16626547
-0.014394508 -0.04117541 -0.074899964 0.043735273 0.10082586 0.029682513 0.02094157 -0.048253674
0.08058887 -0.0003493689 -0.003361691 -0.03672196 0.0005922522 0.00060603133 -0.00018420981 0.0034387112
-0.2165019 0.42646343 -0.05940186 -0.0024670274 -0.009185525 0.20687558 -0.07357755 -0.0841119
-0.052726198 0.31789184 -0.108924754 -0.09007247 0.124797635 -0.44953787 -0.17903776 0.08354835
-0.0006079633 0.001306941 -0.0016502474 0.003534172 -0.09798137 0.040192578 0.0783647 -0.05508618
0.005817272 0.08528555 0.07690661 -0.058575906 -0.15898088 -0.21477993 -0.21098565 0.22646655
0.03096473 0.059801172 -0.019737998 -0.068628356 -0.0010429835 -0.0022533434 -0.00056041515 -0.0010495528
-0.009095246 0.07057129 -0.0046143513 -0.06241683 -0.08607091 -0.18636242 -0.20796101 0.18271509
0.04977529 0.090104274 -0.004781585 -0.07979113 -0.011383934 0.046851728 0.016650466 -0.07044267
0.0014336491 -0.005802374 0.00017887047 -0.0035799756 -0.084807515 -0.13780226 -0.18241736 0.1632921
-0.02161173 -0.019257892 -0.11653499 0.02099743 0.034417804 0.0657988 0.008090318 -0.06285839
-0.027155247 0.054476034 0.00029351207 -0.07879929 -0.001231775 -0.0023295046 -0.0005357001 0.0055184397
-0.09169413 0.10118266 0.09267117 -0.06838691 0.07246928 0.09857979 0.0021070268 -0.08743866
0.033325866 0.07537577 0.04080225 -0.08252479 -0.10718242 -0.21099411 -0.22430561 0.22288862
-0.002464784 0.000722114 -0.0031382905 -0.004460247 0.0075377263 0.061365195 0.00281692 -0.053922646
0.054009028 0.0610332 0.025926491 -0.07410265 -0.109938905 -0.22236587 -0.24343252 0.19329923
0.11512623 0.037982546 0.0155592635 -0.043104615 0.0037784958 0.0025830886 0.00596047 0.0039567435
0.15876211 0.046126455 0.06575445 -0.042194318 -0.08743958 -0.21180114 -0.23973124 0.20834325
0.04503173 0.06463924 -0.004464573 -0.095398426 0.05331816 0.032432586 0.043725833 -0.041163083
-0.0009794658 0.0055407565 0.0016454634 -0.0008735998 -0.10962204 -0.19815545 -0.2308396 0.22771269
-0.06037523 -0.027462775 -0.07501904 0.049140956 0.089900196 0.027504796 0.041781384 -0.050498232
0.07043443 0.02420246 0.049449638 -0.044726327 6.5727036e-05 0.0019315851 -0.0012133194 0.0037796006
-0.030854272 0.098268345 0.014619285 -0.09774744 0.15414226 0.09284396 -0.018386055 -0.1263097
0.019126825 0.044060074 -0.01775375 -0.016273608 -0.12304035 -0.19048744 -0.25782996 0.20251459
0.0013249293 -0.00070726126 -0.0013813542 -0.00032680307 0.0066692405 0.048818577 0.020391032 -0.041855805
0.06856684 0.034858625 0.04711912 -0.043661423 -0.14494888 -0.22125378 -0.21812831 0.21467716
00000000: 7657 24ba 38cd e3b8 340e 0a3a 964a 813b
00000010: 88d1 d93e 65a9 ab3d 4854 4f3e 9be6 0d3e
00000020: eb6b 4cbf 08d1 c63c 2167 5b3e 6b5f 5fbd
00000030: aa7f 683e 25c2 2dbe 2519 e3bd 0d72 d33e
00000040: c9d2 723d 6cae dc3c d55e 9a3c d6df 3fbd
00000050: 28f3 bfba 13e4 12bb 2bc1 05bb c44a 033b
00000060: f895 793d b1a7 3c3d 8061 26bc 8489 96bc
00000070: 545e cbbd e90c 4fbe 0a34 6bbe 9d3a 403e
00000080: 5d6f 853d 3004 4f3d 891f 063d a9d0 2abd
00000090: e59a 453d 875f 843d 15ef 343c 1553 7fbd
000000a0: c2e4 3eba f9f4 4c3b f6be 94ba fb67 733a
000000b0: f073 21be 3ccd 0abe 3164 3ebe 7f41 2a3e
000000c0: f1d6 6bbc 8ca7 28bd 2765 99bd c223 333d
000000d0: ca7d ce3d be28 f33c a88d ab3c a5a5 45bd
000000e0: c70b a53d 802b b7b9 d14f 5cbb c469 16bd
000000f0: 5f41 1b3a 13de 1e3a 7228 41b9 005c 613b
00000100: adb2 5dbe 6a59 da3e 5d4f 73bd daad 21bb
00000110: e27e 16bc 31d7 533e d4af 96bd dc42 acbd
00000120: 6df7 57bd b8c2 a23e f113 dfbd ea77 b8bd
00000130: e795 ff3d d429 e6be ad55 37be 661b ab3d
00000140: ba5f 1fba aa4d ab3a 1d4d d8ba 919d 673b
00000150: 75aa c8bd f9a0 243d ac7d a03d 0ca2 61bd
00000160: d09e be3b 31aa ae3d 3681 9d3d 4aed 6fbd
00000170: e2cb 22be 45ef 5bbe 9f0c 58be d9e6 673e
00000180: bfa9 fd3c 13f2 743d 95b1 a1bc 068d 8cbd
00000190: b8b4 88ba d4ac 13bb d3e8 12ba 2691 89ba
000001a0: 3a04 15bc ae87 903d fc33 97bb caa8 7fbd
000001b0: f245 b0bd cad5 3ebe bbf3 54be aa19 3b3e
000001c0: 2de1 4b3d 9788 b83d d8ae 9cbb 8869 a3bd
000001d0: ae83 3abc 99e7 3f3d 8f66 883c 3f44 90bd
000001e0: 48e9 bb3a d721 bebb 2d8f 3b39 069e 6abb
000001f0: 90af adbd 091c 0dbe 9ecb 3abe 0b36 273e
00000200: 150b b1bc bac2 9dbc e6a9 eebd cd02 ac3c
00000210: aff9 0c3d 85c1 863d 418d 043c e6bb 80bd
00000220: ae74 debc 4322 5f3d 86e2 9939 8661 a1bd
00000230: 8373 a1ba 9aaa 18bb 3a6e 0cba 07d4 b43b
00000240: 22ca bbbd db38 cf3d 62ca bd3d 700e 8cbd
00000250: c66a 943d 33e4 c93d 0b16 0a3b 0a13 b3bd
00000260: b480 083d 9d5e 9a3d 4320 273d c202 a9bd
00000270: 7582 dbbd d70e 58be 5fb0 65be ea3c 643e
00000280: 3788 21bb 404c 3d3a c7ab 4dbb 4327 92bb
00000290: 08ff f63b 125a 7b3d 139c 383b fedd 5cbd
000002a0: 9238 5d3d f3fd 793d cb63 d43c 21c3 97bd
000002b0: a627 e1bd e1b3 63be 6046 79be 3cf0 453e
000002c0: 4dc7 eb3d 9693 1b3d 48ec 7e3c 778e 30bd
000002d0: a4a0 773b 0949 293b 0c50 c33b 92a7 813b
000002e0: 8992 223e 18ef 3c3d 45aa 863d f3d3 2cbd
000002f0: 8613 b3bd 66e2 58be 1b7c 75be ef57 553e
00000300: 3173 383d 9461 843d 8e4b 92bb 4060 c3bd
00000310: 2564 5a3d 08d8 043d dc19 333d 9f9a 28bd
00000320: 6b61 80ba 3c8f b53b 97ac d73a 4a02 65ba
00000330: 8581 e0bd 43e9 4abe 3761 6cbe 842d 693e
00000340: 044c 77bd 9df9 e0bc 95a3 99bd 0748 493d
00000350: 981d b83d bd51 e13c f522 2b3d 3cd7 4ebd
00000360: ed3f 903d 3d44 c63c b48b 4a3d f432 37bd
00000370: efd6 8938 3e2d fd3a 3e08 9fba 2db3 773b
00000380: 19c2 fcbc ea40 c93d ba85 6f3c cf2f c8bd
00000390: 78d7 1d3e f924 be3d 5a9e 96bc 5457 01be
000003a0: dcaf 9c3c 5678 343d 5070 91bc 3b50 85bc
000003b0: 94fc fbbd 240f 43be 4a02 84be fc5f 4f3e
000003c0: 40a9 ad3a 8067 39ba 8e0e b5ba c456 abb9
000003d0: a589 da3b fdf5 473d 180b a73c fe70 2bbd
000003e0: c56c 8c3d ebc7 0e3d faff 403d 52d6 32bd
000003f0: 7b6d 14be 5a90 62be 075d 5fbe 54d4 5b3e

layer1.weight f4 [50, 4]
-0.24022123 0.040827245 -0.3866705 0.62517333 0.12608673 -0.45002306 -0.4107975 0.43702808
-0.89753044 -0.34487134 0.38784456 0.02506644 0.06473588 -0.34465015 -0.34292594 0.4097866
0.023472743 -0.3371655 -0.3695547 0.4509897 0.032283947 0.25593588 0.41698864 -0.87957084
0.030850586 -0.3919551 -0.36352646 0.47024208 0.07706123 -0.36362597 -0.36880556 0.4285402
-0.50990105 0.29013228 -0.2906394 0.8915833 -0.40950698 0.24145657 1.852013 -0.7044424
0.046568565 -0.44181338 -0.2890935 0.47673926 0.11597307 -0.5264899 -0.33960423 0.39945483
-0.67004 0.40724352 -1.6094807 0.044548508 -0.27407327 -0.5102941 -1.0185378 0.118664235
0.06928786 -0.34080893 -0.41501167 0.39956194 0.03642604 -0.30303204 -0.40956795 0.4039579
0.8015661 0.430477 0.0027280806 -0.45586243 0.13026598 0.66212386 0.055961907 -1.1016754
0.057987023 -0.33751568 -0.3564036 0.42662445 0.09150141 -0.45231512 -0.3126412 0.41790372
-0.8270293 -0.21095899 0.2904822 -0.03056933 0.18014508 -0.7602435 -0.6941183 0.65203017
0.038168553 -0.31140858 -0.3395912 0.4523533 -0.31426418 0.24369848 -0.08051872 0.92435735
-0.45852193 0.08173995 -0.35554567 0.74591714 -0.31493056 -0.3455366 -0.8461337 0.44378725
0.09175385 -0.3808607 -0.38669512 0.42811978 0.010514934 0.33051154 0.5069784 -0.78498733
0.113068044 -0.42885742 -0.5167663 0.42669502 -0.004675597 -0.27129388 -0.40400758 0.46875703
0.06500787 -0.7289994 -0.3995143 0.6105836 0.048621878 -0.32593277 -0.35850793 0.43890235
-0.3041107 -0.33938244 -0.86543757 0.42530295 0.17701149 -0.437037 -0.47926074 0.39878833
0.07911409 -0.46599945 -0.31398958 0.40145466 0.03968203 -0.30907008 -0.36952287 0.42824656
0.04873327 -0.3159229 -0.37854484 0.4132948 -0.0037752714 -0.26695707 -0.38522762 0.42921343
0.113946386 -0.65495706 -0.29265687 0.4838559 -0.5593367 -0.5928615 -0.44986612 0.08159424
0.063536644 -0.33117428 -0.3680405 0.39492685 0.0286172 -0.94448084 -0.40107813 0.27211782
-0.47373855 -1.2264977 -0.19610283 0.4154109 -0.055475645 -0.22086911 -0.3569608 0.49082062
-1.0428985 -0.40117186 0.44364965 0.04992081 0.04461576 -0.3229817 -0.39633858 0.3899082
-0.8126597 -0.71487457 -0.6950817 0.25009006 0.05480705 -0.31984714 -0.39136726 0.38412392
0.02804666 -0.29977044 -0.3511013 0.4286022 0.14857513 -0.92464167 -0.3084368 0.5342018
00000000: 8efc 75be 783a 273d adf9 c5be 5c0b 203f
00000010: e11c 013e 6c69 e6be 0d54 d2be 25c2 df3e
00000020: 8ec4 65bf fa92 b0be 9093 c63e 2358 cd3c
00000030: 3f94 843d fc75 b0be fd93 afbe 8dcf d13e
00000040: e949 c03c f5a0 acbe 4636 bdbe 1fe8 e63e
00000050: 2c3c 043d 070a 833e 897f d53e 8e2b 61bf
00000060: 5eba fc3c 57ae c8be 2420 babe 92c3 f03e
00000070: 47d2 9d3d 2f2d babe 15d4 bcbe 9f69 db3e
00000080: e088 02bf 388c 943e b0ce 94be ce3e 643f
00000090: e6aa d1be 6440 773e c30e ed3f 5656 34bf
000000a0: aebe 3e3d 5d35 e2be 1004 94be 2b17 f43e
000000b0: 4a83 ed3d 0bc8 06bf 9be0 adbe 5885 cc3e
000000c0: be87 2bbf 3982 d03e 7703 cebf 7f78 363d
000000d0: 5553 8cbe a2a2 02bf 725f 82bf 3c06 f33d
000000e0: cbe6 8d3d 827e aebe 697c d4be 6293 cc3e
000000f0: 7933 153d 0427 9bbe e4b2 d1be 92d3 ce3e
00000100: 7033 4d3f 7b67 dc3e 99c9 323b cd66 e9be
00000110: 7264 053e f380 293f 5038 653d b303 8dbf
00000120: cd83 6d3d dbce acbe 887a b6be 856e da3e
00000130: 1765 bb3d d995 e7be 8212 a0be 7af7 d53e
00000140: 31b8 53bf a205 58be 15ba 943e 886c fabc
00000150: f477 383e 519f 42bf bdb1 31bf 73eb 263f
00000160: a156 1c3d f270 9fbe e6de adbe da9a e73e
00000170: 3ce7 a0be 188c 793e 00e7 a4bd afa2 6c3f
00000180: 63c3 eabe 4667 a73d 150a b6be 6df4 3e3f
00000190: 943e a1be 2cea b0be 389c 58bf 1538 e33e
000001a0: 71e9 bb3d 2c00 c3be e7fc c5be 8432 db3e
000001b0: d446 2c3c cf38 a93e 56c9 013f eef4 48bf
000001c0: 3890 e73d 3393 dbbe cc4a 04bf c577 da3e
000001d0: c035 99bb 08e7 8abe 15da cebe ec00 f03e
000001e0: d922 853d b49f 3abf 238d ccbe 354f 1c3f
000001f0: bc27 473d a9e0 a6be 5a8e b7be cfb7 e03e
00000200: 66b4 9bbe 89c3 adbe 518d 5dbf 4fc1 d93e
00000210: 8042 353e 50c3 dfbe aa61 f5be fc2d cc3e
00000220: 9106 a23d 7b97 eebe 3ec3 a0be 778b cd3e
00000230: a089 223d 6f3e 9ebe 1a32 bdbe 2243 db3e
00000240: 8a9c 473d a5c0 a1be a1d0 c1be 609b d33e
00000250: 8b6a 77bb 99ae 88be 8e3c c5be ddc1 db3e
00000260: b95c e93d 44ab 27bf 1fd7 95be f6bb f73e
00000270: b130 0fbf c5c5 17bf da54 e6be e21a a73d
00000280: 801f 823d ad8f a9be ce6f bcbe da33 ca3e
00000290: 9e6e ea3c 7fc9 71bf 1d5a cdbe 0753 8b3e
000002a0: dc8d f2be e0fd 9cbf 2ecf 48be bdb0 d43e
000002b0: 6e3a 63bd 832b 62be 91c3 b6be d74c fb3e
000002c0: b37d 85bf 6666 cdbe 0c26 e33e c379 4c3d
000002d0: 04bf 363d db5d a5be e4ec cabe 0ca2 c73e
000002e0: 770a 50bf 0502 37bf e0f0 31bf ce0b 803e
000002f0: 5b7d 603d 01c3 a3be 4a61 c8be e4ab c43e
00000300: 1cc2 e53c 837b 99be 8dc3 b3be bf71 db3e
00000310: 1424 183e 51b5 6cbf 6eeb 9dbe 73c1 083f

layer1.bias f4 [50]
0.28821373 0.26213494 -0.13449763 0.27308136 0.2768022 0.33668983 0.2781419 0.2697953
0.40859854 0.5431824 0.28200868 0.27501225 0.5456165 0.3750857 0.27398103 0.27668166
0.24524458 0.38127753 0.26988226 0.2644277 -0.12231288 0.29060924 0.26892093 0.32196268
0.3427332 0.27867627 0.2676824 0.34635404 0.2886932 0.27160108 0.30168542 0.26930583
0.279435 0.2795952 0.26892704 0.26636705 0.2703041 0.2676218 0.29626274 0.017196286
0.2738024 0.38443267 0.3914106 0.26772353 -0.16339688 0.2743869 0.5097126 0.27188325
0.27051416 0.3624664
00000000: c090 933e 8d36 863e bfb9 09be 52d1 8b3e
00000010: 05b9 8d3e 9c62 ac3e 9d68 8e3e 9c22 8a3e
00000020: d433 d13e 000e 0b3f 7163 903e 68ce 8c3e
00000030: 86ad 0b3f 3c0b c03e 3e47 8c3e 38a9 8d3e
00000040: 6521 7b3e cf36 c33e 022e 8a3e 1163 873e
00000050: 2d7f fabd bcca 943e 01b0 893e 4bd8 a43e
00000060: ba7a af3e a8ae 8e3e ab0d 893e 5155 b13e
00000070: 98cf 933e 4c0f 8b3e 8376 9a3e 74e2 893e
00000080: 1b12 8f3e 1a27 8f3e ceb0 893e 4361 883e
00000090: 4d65 8a3e b905 893e c0af 973e 3adf 8c3c
000000a0: d42f 8c3e 5cd4 c43e f866 c83e 0f13 893e
000000b0: 8351 27be 717c 8c3e 867c 023f 4834 8b3e
000000c0: d580 8a3e 3295 b93e

layer2.weight f4 [50, 50]
0.26532352 0.376681 0.45139202 0.30973017 0.3095588 -0.41235003 0.3300536 0.3255253
0.1620067 -0.99640435 0.29568845 0.34701124 0.7245136 0.6828647 0.35260683 0.33117494
0.031581316 -0.14733627 0.32004848 0.3104267 0.261786 0.57502174 0.30165622 0.09736365
0.20591964 0.5179425 0.3462843 -0.4785467 0.4423595 0.329065 0.42202285 0.30814117
0.5189186 0.4183393 0.30515018 0.3184228 0.3206567 0.31876862 0.34997052 0.5257926
0.317478 0.39210767 0.19745488 0.28326166 0.41065675 0.33801663 0.4332691 0.33364323
0.30662322 0.37855867 0.45676804 0.39855924 -0.20749466 0.40756595 0.41014132 -0.14747319
0.44089592 0.39705235 0.53772175 0.36457253 0.4770395 0.45432395 0.111128785 0.33813038
0.38450676 0.38104427 -0.26800403 -0.3201286 0.40870464 0.42645645 0.04404937 0.47803038
0.41575962 0.6880927 0.45327577 0.3593488 0.39600107 -0.1150412 0.39439386 0.40681776
0.5734575 0.3980243 0.34056532 0.36802614 0.4273152 0.3968795 0.38871932 0.3973111
0.5506913 0.03936544 0.3897948 0.52229697 0.5765374 0.41295096 -0.2176334 0.3921829
0.53950584 0.3851107 0.41019905 0.59034276 0.37877446 0.39279425 0.29184148 0.36567307
0.3694564 -0.3062139 0.3972829 0.3689579 0.38453254 -0.18905897 0.4028302 0.40880954
0.36640474 0.49267906 0.3717743 0.3600649 -0.18811683 -0.30800545 0.37240264 0.37873176
0.3265206 0.54551286 0.3690321 0.45436576 0.35294077 0.4377997 0.37696752 -0.31162468
0.417172 0.37556514 0.52598506 0.36103758 0.42707232 0.39061207 0.3750353 0.365498
0.36033633 0.3641662 0.4724586 0.30742085 0.35942107 0.4720965 0.41849723 0.3602439
0.284202 0.36857978 0.50167996 0.36250347 0.36664554 0.5140374 0.004371743 -0.009638344
0.001906969 -0.002058389 0.00037553883 -5.85049e-05 9.58024e-05 -0.0050240178 -0.00062477804 0.0033944407
0.00012185106 0.0007231478 -0.0019632939 0.001794555 -0.0020365214 -0.0007455484 0.0007129856 -0.0010407951
-0.0027397326 -0.0023140977 -0.0041778553 -0.014903764 -0.0039394572 -0.021787858 -0.0055933464 0.00301709
-0.008116587 -0.000110531444 -0.00506465 -0.00022112674 0.00013379566 -0.0037671034 0.0027469082 -0.010519581
0.0008063146 -0.0030189422 -0.0018862345 1.4246468e-05 -0.0009985153 -0.0024297673 -0.0012106582 -0.00092976645
-0.00096443214 -0.00011821214 0.004881452 -0.001002475 0.006562595 -0.00041677934 -0.0007691716 -0.002625633
-0.00022419725 0.0002469463 -9.402472e-05 0.00012674293 0.0002757378 -2.7616114e-05 0.00031026284 -4.380546e-05
-0.00061958993 0.00018400325 0.00031806825 -0.00031344782 0.00025465648 -0.0004529345 -0.00028239543 0.00017533512
-0.00013893987 4.642944e-06 -0.00018730188 -0.00019109217 -5.339089e-05 -0.00022879506 4.9484926e-05 -0.00041251682
0.00033537124 -0.00047016592 0.0002498133 -0.0003697133 -0.00013168546 -0.00036526448 -0.00069567957 -0.00039899844
-0.00032140609 -3.0899868e-05 -0.0003606828 0.00025546772 0.00035809804 -0.00022531317 -0.00036712975 6.721787e-05
-0.0002116931 0.00042722464 0.0002689438 -0.00016166615 -0.0007544091 -1.6705408e-06 0.00021123338 -0.00018546027
6.8890427e-06 -0.00022703216 0.000119370154 -0.0002899933 -0.00039832672 9.476495e-05 -0.0004093081 0.00022776012
00000000: 7cd8 873e 55dc c03e db1c e73e f494 9e3e
00000010: 7e7e 9e3e 8b1f d3be c9fc a83e 41ab a63e
00000020: 16e5 253e 5b14 7fbf 7a64 973e 75ab b13e
00000030: b979 393f 39d0 2e3f e288 b43e c38f a93e
00000040: 695b 013d 52df 16be 65dd a33e 40f0 9e3e
00000050: d108 863e a034 133f af72 9a3e 9866 c73d
00000060: 99dc 523e e197 043f 2d4c b13e 1304 f5be
00000070: f27c e23e 357b a83e 6113 d83e aec4 9d3e
00000080: d9d7 043f 9230 d63e a53c 9c3e 5008 a33e
00000090: 1d2d a43e a435 a33e 562f b33e 589a 063f
000000a0: 7a8c a23e 56c2 c83e 9d31 4a3e ac07 913e
000000b0: 9a41 d23e 8410 ad3e 73d5 dd3e 49d3 aa3e
000000c0: b8fd 9c3e 71d2 c13e 80dd e93e f50f cc3e
000000d0: 7b79 54be 7cac d03e 0bfe d13e 3603 17be
000000e0: 1cbd e13e 724a cb3e 22a8 093f 40a9 ba3e
000000f0: 853e f43e 269d e83e 7d97 e33d 6d1f ad3e
00000100: 12de c43e 3c18 c33e d337 89be e5e7 a3be
00000110: bc41 d13e 8058 da3e 1d6d 343d 66c0 f43e
00000120: 72de d43e d826 303f c313 e83e 91fc b73e
00000130: a7c0 ca3e b89a ebbd feed c93e 6b4a d03e
00000140: 1cce 123f d7c9 cb3e 945e ae3e ec6d bc3e
00000150: 0fc9 da3e ca33 cb3e 3806 c73e 5c6c cb3e
00000160: 1bfa 0c3f a83d 213d 2f93 c73e 41b5 053f
00000170: f497 133f 4f6e d33e 4adb 5ebe 32cc c83e
00000180: 0e1d 0a3f 3b2d c53e 9c05 d23e b420 173f
00000190: baee c13e 541c c93e 3f6c 953e 8039 bb3e
000001a0: 6429 bd3e 11c8 9cbe aa68 cb3e 0de8 bc3e
000001b0: 73e1 c43e ad98 41be c33f ce3e 7c4f d13e
000001c0: 6799 bb3e 6e40 fc3e 3359 be3e 6d5a b83e
000001d0: b3a1 40be e4b2 9dbe 8fab be3e 21e9 c13e
000001e0: b52d a73e bba6 0b3f c7f1 bc3e a1a2 e83e
000001f0: a7b4 b43e 4827 e03e e301 c13e 458d 9fbe
00000200: 9297 d53e 134a c03e f5a6 063f ebd9 b83e
00000210: 39a9 da3e 4efe c73e a004 c03e 8e22 bb3e
00000220: 017e b83e fe73 ba3e 18e6 f13e 4466 9d3e
00000230: 0a06 b83e a2b6 f13e 4545 d63e e371 b83e
00000240: ed82 913e 7db6 bc3e 196e 003f 0e9a b93e
00000250: f7b8 bb3e f497 033f d740 8f3b 25ea 1dbc
00000260: 43f3 f93a 09e6 06bb f8e3 c439 2863 75b8
00000270: 86e9 c838 84a0 a4bb 25c8 23ba 4475 5e3b
00000280: 4a8a ff38 a191 3d3a 9baa 00bb 4637 eb3a
00000290: 2977 05bb e870 43ba a7e7 3a3a 4a6b 88ba
000002a0: 168d 33bb 1ea8 17bb 64e6 88bb eb2e 74bc
000002b0: 9016 81bb 737c b2bc 6448 b7bb 5fba 453b
000002c0: 6ffb 04bc 1ecd e7b8 5df5 a5bb 42de 67b9
000002d0: 804b 0c39 82e1 76bb 7905 343b 525a 2cbc
000002e0: db5e 533a 72d9 45bb 873b f7ba 1d04 6f37
000002f0: 9de0 82ba bb3c 1fbb f3ae 9eba 92bb 73ba
00000300: f2d1 7cba a9e8 f7b8 96f4 9f3b 7b65 83ba
00000310: 090b d73b 2d83 dab9 3ba2 49ba d012 2cbb
00000320: 7e16 6bb9 9278 8139 232f c5b8 4ce6 0439
00000330: e790 9039 27a9 e7b7 c6aa a239 c1bb 37b8
00000340: fa6b 22ba fff0 4039 66c2 a639 4156 a4b9
00000350: 6a83 8539 d777 edb9 790e 94b9 2ada 3739
00000360: 63b0 11b9 96ca 9b36 7766 44b9 ea5f 48b9
00000370: 08f0 5fb8 b5e8 6fb9 098e 4f38 1247 d8b9
00000380: c4d4 af39 9a80 f6b9 60f9 8239 14d6 c1b9
00000390: 0c15 0ab9 f880 bfb9 445e 36ba aa30 d1b9
000003a0: 6582 a8b9 7b9a 01b8 071a bdb9 4cf0 8539
000003b0: 1bbf bb39 0b42 6cb9 527b c0b9 52f7 8c38
000003c0: eff9 5db9 1ffd df39 0701 8d39 ed84 29b9
000003d0: 8ac3 45ba 5837 e0b5 877e 5d39 1d78 42b9
000003e0: 6d28 e736 7b0f 6eb9 5d56 fa38 3e0a 98b9
000003f0: 82d6 d0b9 8cbc c638 6798 d6b9 e4d2 6e39

layer2.bias f4 [50]
0.16849102 0.44203144 0.30725077 -0.0017994759 -0.00047324292 -0.0004423127 0.310967 -0.00020225372
0.02954445 0.46959603 0.15195113 0.14667301 0.1979505 0.23669496 -0.12389076 0.31415474
0.15427239 0.7633498 0.57658625 0.25868118 0.29874218 0.25236952 0.16742404 0.24678619
-0.014516316 0.40091375 0.4868848 0.13299619 0.3466139 0.1923206 0.118450396 0.17826048
0.24968798 0.17083979 0.1288205 0.18565288 0.32511884 0.007874646 9.369448e-05 -5.2138654e-05
0.17760354 0.00020966909 -0.013656791 0.25147706 0.13492432 -0.00038335923 0.21747437 0.2675749
0.22511058 0.20601784
00000000: e988 2c3e f251 e23e f94f 9d3e 64dc ebba
00000010: 971d f8b9 35e6 e7b9 1137 9f3e 1214 54b9
00000020: 3407 f23c e46e f03e 1499 1b3e 7331 163e
00000030: 89b3 4a3e 2a60 723e 70ba fdbd e4d8 a03e
00000040: 95f9 1d3e e46a 433f 289b 133f dc71 843e
00000050: bcf4 983e 9436 813e 3571 2b3e 85b5 7c3e
00000060: d8d5 6dbc 9144 cd3e f748 f93e 2730 083e
00000070: 6177 b13e b1ef 443e 1f96 f23d ea89 363e
00000080: 35ae 7f3e a0f0 2e3e 85e9 033e ca1b 3e3e
00000090: fa75 a63e a904 013c d77d c438 74af 5ab8
000000a0: b4dd 353e 9eda 5b39 bcc0 5fbc 9ac1 803e
000000b0: 9a29 0a3e 9bfd c8b9 9ab1 5e3e 94ff 883e
000000c0: 6383 663e 57f6 523e

layer3.weight f4 [6, 50]
-0.12334276 -0.3625751 -0.28238747 0.0029719714 9.3674185e-05 0.00022441517 -0.2622186 -0.00047339225
-0.109654866 -0.45526117 -0.43051207 -0.32787782 -0.6765294 -0.3180532 -0.32099593 -0.3077418
-0.16019177 -0.1265008 -0.052337322 -0.25124246 -1.2209852 -0.31807262 -0.2366363 -0.31606635
-0.01434719 -0.2365568 -0.25559765 -0.2653436 -0.3234924 -0.20841163 -0.4567187 -0.25802732
-0.16165507 -0.18925032 -0.42089215 -0.3541036 -0.35623276 0.6367575 -0.00017457391 0.00025372198
-0.16132548 0.00037607414 0.0035127446 -0.14800914 -0.34492323 -0.0002982015 -0.34406686 -0.26212445
-0.11265578 -0.17248268 -0.43331513 -0.12743007 -0.26208982 -8.870006e-05 5.64581e-05 0.00027806254
-0.25650698 -0.0001608036 -0.5182688 -0.053953033 -0.16539907 -0.28966495 0.030739494 -0.23813322
-0.3330434 -0.21940652 -0.41071203 -0.15659955 -0.3136092 -0.30192366 -0.05477678 -0.25901806
-0.32668507 -0.23727618 0.0040389467 -0.2741545 -0.23348556 -0.30918482 -0.20105661 -0.36057475
-0.12402016 -0.31246075 -0.37948346 -0.40413964 -0.15152289 -0.20512174 -0.18216917 -0.55773324
-8.221876e-05 -0.0003108296 -0.40518597 -0.00037044229 0.0030148162 -0.40957257 -0.8192257 -0.00017665503
-0.23739491 -0.2788477 -0.43353152 -0.39589882 -0.25938535 -0.24690431 -0.26413965 0.0013101532
-0.00032362159 -0.0004040487 -0.26070505 -5.402214e-05 -0.26994422 -0.2577235 -0.33142453 -0.49526137
-0.37259448 -0.29545993 -0.36328727 -0.26894063 -0.27966794 -0.087533586 -0.14722829 -0.27447888
-0.071532 -0.28981423 -0.2965051 -0.29144335 -0.013463147 -0.23311298 -0.2221106 -0.302849
-0.26407394 -0.2734801 -0.3457115 -0.30305338 -0.24506721 -0.28118095 -0.33852848 -0.3171088
-0.2764972 -1.3210204 -0.0004438657 -0.00025619543 -0.2723853 -0.00018519386 0.008094997 -0.24501877
-0.60972387 0.00043898105 -0.3067291 -0.2706176 -0.24035166 -0.26324737 -0.32386014 -0.2230401
-0.27453315 0.0066502877 -8.558976e-05 -0.00018295772 -0.26161957 0.0003875149 -0.3637413 -0.20279557
-0.2428402 -0.29386044 -0.1948261 -0.2652133 -0.30630878 -0.2545403 -0.31700134 -0.16925646
-0.2255458 -0.28644952 -1.1187637 -0.28057054 -0.2871383 -0.26434958 0.0124500105 -0.26980975
-0.25357324 -0.28838202 -0.25080654 -0.31127056 -0.21399413 -0.28628334 -0.31011677 -0.32938316
-0.22246194 -0.24785629 -0.24899139 1.2891326 0.0004203814 -0.0004300575 -0.31663808 -0.00038231173
-0.014470758 -0.32293266 -0.64965373 0.0002383198 -0.2751953 -0.27832478 -0.3288569 -0.3219563
-0.14807108 -0.30817896 -0.18679437 0.0011600043 0.0002199347 0.00030984255 -0.3804487 0.00013175284
-0.14714023 -0.49545917 -0.31390792 -0.30954584 -0.006250706 -0.32834715 -0.2511324 -0.39972943
-0.17405331 -1.2981775 -0.92180663 -0.30187342 -0.60410964 -0.15706114 -0.23254654 -0.28506845
-0.013805977 -0.24390976 -0.23163648 -0.2618923 -0.3412334 -0.120786704 -0.34604743 -0.23794527
-0.20510964 -0.16069974 -0.3353394 -0.2882623 -0.3501426 -0.0040702256 0.00028098506 0.0003861756
-0.24924527 -0.00030391672 0.020128476 -0.13168058 3.2338815 -0.00020908179 -0.2420986 -0.15430625
-0.101768196 -0.21234098 -0.2057352 -0.53140366 -0.42084685 -0.00346635 8.2841005e-05 0.00021306118
00000000: 219b fcbd 72a3 b9be 1795 90be 68c5 423b
00000010: f272 c438 fd50 6b39 8441 86be a231 f8b9
00000020: bb92 e0bd fe17 e9be 146c dcbe 9adf a7be
00000030: 0831 2dbf ded7 a2be 9459 a4be 5590 9dbe
00000040: 5009 24be 6d89 01be a95f 56bd daa2 80be
00000050: 3e49 9cbf 6ada a2be c950 72be 73d3 a1be
00000060: 7a10 6bbc f23b 72be b2dd 82be 1edb 87be
00000070: cca0 a5be dc69 55be 09d7 e9be 281c 84be
00000080: e888 25be d6ca 41be 2d7f d7be 114d b5be
00000090: 2464 b6be 8a02 233f d40d 37b9 fd05 8539
000000a0: 8232 25be d12b c539 1336 663b b58f 17be
000000b0: c799 b0be ee57 9cb9 8829 b0be 2d35 86be
000000c0: 13b8 e6bd 4d9f 30be 7bdb ddbe 077d 02be
000000d0: a330 86be 7b04 bab8 6ccd 6c38 ecc8 9139
000000e0: e254 83be 639d 28b9 44ad 04bf dbfd 5cbd
000000f0: 605e 29be f74e 94be 64d1 fb3c 32d9 73be
00000100: aa84 aabe 1aac 60be d948 d2be a25b 20be
00000110: 6391 a0be bd95 9abe 9e5d 60bd 049e 84be
00000120: 4443 a7be 87f8 72be 2459 843b fb5d 8cbe
00000130: d716 6fbe 794d 9ebe c9e1 4dbe 419d b8be
00000140: 48fe fdbd dbfa 9fbe a84b c2be 64eb cebe
00000150: d128 1bbe 6f0b 52be 8e8a 3abe 9bc7 0ebf
00000160: dc6c acb8 d8f6 a2b9 8974 cfbe ec37 c2b9
00000170: 3994 453b 7fb3 d1be c7b8 51bf 793c 39b9
00000180: a717 73be 20c5 8ebe d8f7 ddbe 40b3 cabe
00000190: 28ce 84be 7cd4 7cbe 503d 87be 72b9 ab3a
000001a0: c1ab a9b9 80d6 d3b9 227b 85be d595 62b8
000001b0: 2136 8abe 56f4 83be 7ab0 a9be e692 fdbe
000001c0: b4c4 bebe 8646 97be ca00 babe 96b2 89be
000001d0: a330 8fbe cf44 b3bd 03c3 16be 7f88 8cbe
000001e0: 5f7f 92bd 8862 94be 84cf 97be 1038 95be
000001f0: 8894 5cbc 2bb5 6ebe f670 63be 060f 9bbe
00000200: b334 87be 9505 8cbe 1901 b1be d029 9bbe
00000210: e6f2 7abe f3f6 8fbe 9b53 adbe 165c a2be
00000220: 0a91 8dbe 3217 a9bf a5b6 e8b9 f851 86b9
00000230: 1676 8bbe 9930 42b9 e1a0 043c 33e6 7abe
00000240: dd16 1cbf 0a27 e639 990b 9dbe 648e 8abe
00000250: bf1e 76be 5cc8 86be ffd0 a5be a064 64be
00000260: 9c8f 8cbe a8ea d93b a77e b3b8 57d8 3fb9
00000270: 00f3 85be 5f2b cb39 4d3c babe a4a9 4fbe
00000280: 1aab 78be e074 96be 7e80 47be 0aca 87be
00000290: 81d4 9cbe 1b53 82be 004e a2be 9151 2dbe
000002a0: 7af5 66be 83a9 92be a633 8fbf f1a6 8fbe
000002b0: cb03 93be d458 87be 21fb 4b3c 8124 8abe
000002c0: 5ad4 81be cfa6 93be b769 80be db5e 9fbe
000002d0: 4721 5bbe bb93 92be a0c7 9ebe e9a4 a8be
000002e0: 10cd 63be 0ace 7dbe 99f7 7ebe 4c02 a53f
000002f0: a366 dc39 5779 e1b9 631e a2be 0371 c8b9
00000300: c216 6dbc 6e57 a5be b54f 26bf 7ce5 7939
00000310: 66e6 8cbe 9680 8ebe ee5f a8be 75d7 a4be
00000320: f29f 17be a2c9 9dbe 0647 3fbe 490b 983a
00000330: 469e 6639 5d72 a239 2cca c2be 2227 0a39
00000340: eeab 16be d3ac fdbe 8ab8 a0be cb7c 9ebe
00000350: b9d2 ccbb 1e1d a8be 6d94 80be 56a9 ccbe
00000360: 083b 32be ae2a a6bf 85fb 6bbf 278f 9abe
00000370: eea6 1abf a3d4 20be ae20 6ebe 7ef4 91be
00000380: 7732 62bc 7bc3 79be 1d32 6dbe bf16 86be
00000390: 25b6 aebe 055f f7bd 212d b1be eda7 73be
000003a0: 4308 52be 798e 24be 9bb1 abbe 1e97 93be
000003b0: e445 b3be 875f 85bb 2d51 9339 9d77 ca39
000003c0: 273a 7fbe 0357 9fb9 79e4 a43c 46d7 06be
000003d0: eaf7 4e40 f73c 5bb9 b2e8 77be 7502 1ebe
000003e0: d86b d0bd ea6f 59be 40ac 52be 120a 08bf
000003f0: 3d79 d7be b42b 63bb edba ad38 2d69 5f39

layer3.bias f4 [6]
0.11059781 -0.053929336 -0.006864953 -0.04512092 -0.77263945 -1.3336663
00000000: 1b81 e23d 02e5 5cbd 66f3 e0bb b7d0 38bd
00000010: b3cb 45bf 94b5 aabf
